temperature_model.pth (torch, 13356 bytes, 6 tensors)

fc1.weight f4 [64, 6]
000000 a5 ff 31 be ae 6d d6 3e ff c6 17 3e 0a 14 da 3b
       -0.17382677 0.41880554 0.14822005 0.006655221
000010 65 1a 0b be 23 c4 a9 be 28 40 66 3e 1e a2 fc bd
       -0.13584287 -0.33157453 0.22485411 -0.12335609
000020 ce ca 08 3e 19 d5 77 be 2d 50 08 bd d4 7c a0 3e
       0.13358614 -0.24202384 -0.033279587 0.31345236
000030 44 70 1a 3c 02 01 63 be 3d 72 f9 ba 98 19 e1 3d
       0.00942618 -0.22168353 -0.0019031238 0.1099121
000040 68 c1 95 be 44 57 8c 3e 36 e7 62 3e 47 20 e2 be
       -0.2924912 0.27410328 0.22158512 -0.4416525
000050 44 98 d5 3e 1f ce ec 3d ab fd 5e 3e ab 5c c6 bd
       0.41717732 0.11562752 0.21776454 -0.09685644
000060 90 c0 c5 3d c5 e5 8e 3e 62 49 b8 bd d9 f2 df 3d
       0.09655869 0.27909675 -0.08998372 0.109349914
000070 a0 f9 3c be 2f ba be bd d8 9c a3 3e 8a d2 04 be
       -0.184546 -0.093128555 0.319556 -0.1297094
000080 ee ff 5f be 05 d1 14 be 7e e4 74 3e d8 ce 34 be
       -0.21874973 -0.1453286 0.23915288 -0.1765703
000090 4c 24 ac 3e c7 e9 11 3e fc 36 cd bd 73 1e c2 3e
       0.33621442 0.14249335 -0.10020253 0.37913856
0000a0 e9 60 3d 3e 2b b2 c5 bd fa 4f 20 be 0e b3 e1 be
       0.18494 -0.096531235 -0.15655509 -0.4408192
0000b0 a6 0f 6a 3e c4 d2 c3 be f4 3e 95 3e 1f b7 c4 3e
       0.22857532 -0.3824674 0.29149592 0.3842096
0000c0 10 cc be 3e 55 94 a7 3e 6d 34 8c 3e 91 b8 00 be
       0.37265062 0.32730356 0.27383748 -0.12570406
0000d0 57 17 0c 3c 63 71 7e bb 81 db 2a be 71 83 2e be
       0.0085504865 -0.0038824908 -0.16685297 -0.17042328
0000e0 20 b4 80 be 14 27 86 be 02 4f c7 be 54 38 a9 3c
       -0.25137424 -0.2620169 -0.38927466 0.020656742
0000f0 7c e8 bd be d8 01 e4 be 53 6d 4d be 48 ec b8 bc
       -0.37091434 -0.44532657 -0.20061235 -0.022573605
000100 ac ef dd bb e1 ed b2 be ce 6d d6 3d 0c 6f 22 3d
       -0.006772956 -0.34947112 0.10470162 0.039656684
000110 69 c8 84 be 15 28 82 be 9d fa a3 be 45 1a ce 3c
       -0.2593415 -0.25421205 -0.3202714 0.02515901
000120 fd 2d 3a be d4 3c 85 be 14 35 54 be f7 9f 14 bd
       -0.18181606 -0.2602297 -0.20723373 -0.036285367
000130 cd 20 80 3e 1c 3e 10 be f2 3a a2 3e b1 59 45 3d
       0.25025025 -0.14086193 0.31685597 0.04818124
000140 02 d5 fa 3d bc e4 24 3d 75 6e a6 3e 63 96 72 be
       0.12247659 0.0402572 0.32506147 -0.2369018
000150 ec ab 06 bd 0d 7d 85 3e d5 c5 d3 3e 1a c2 b2 3d
       -0.0328788 0.2607197 0.4136187 0.08728428
000160 d1 f2 8c 3e 79 cb 4a bd a5 48 cd 3e 21 17 0d bf
       0.27529004 -0.049510453 0.40094486 -0.55113417
000170 19 7b d8 3c b7 8d 1d be a8 89 db bb 26 be e2 bc
       0.026425885 -0.15386091 -0.0066997595 -0.02767856
000180 f2 a7 a8 3e 1c 9a 49 3e 0f c4 35 3e a0 21 d8 3e
       0.32940632 0.19687694 0.17750572 0.42213154
000190 b0 3b 99 bd 16 14 98 bd 31 ae 43 3e cf d9 8f 3e
       -0.074820876 -0.07425706 0.19109417 0.28095862
0001a0 0c 34 39 be 3a 7a aa 3e c5 4f 83 be e1 30 d7 3c
       -0.1808626 0.33296376 -0.25646797 0.026268424
0001b0 b5 45 80 be 8d 1b fc bc 87 b0 58 be 46 23 0a 3e
       -0.25053182 -0.030774856 -0.2116109 0.13490018
0001c0 17 b8 8a bd e7 01 cf bc d3 5e 64 be 79 8a 11 3d
       -0.067733936 -0.025269462 -0.22301798 0.03553245
0001d0 7c f7 62 be f6 e7 84 be 6a b6 0e 3d 21 f9 51 3e
       -0.2216472 -0.25958222 0.034841932 0.20505191
0001e0 92 4e a8 be bc cd 7c bd 9c b3 c5 be 9f c3 90 bb
       -0.32872444 -0.06171964 -0.38613594 -0.004417851
0001f0 77 13 4e be f0 f6 ad bd 2b 2e 68 bd b2 3b 6f bd
       -0.20124613 -0.08494365 -0.056684654 -0.05840654
000200 e7 8e fe bc 8a 12 86 be ce 44 c4 3d 72 b3 5a 3e
       -0.031074 -0.2618602 0.09583436 0.21357515
000210 6b 1a 1b be bf 0e f3 bc 05 63 43 3e 6f cb b7 3d
       -0.15146796 -0.029670117 0.19080742 0.08974349
000220 a2 dc c7 be f5 db 8e 3d 4a 43 ef bd d3 f5 92 be
       -0.39035517 0.06975547 -0.11682756 -0.28703174
000230 76 6b 72 be 99 d4 1d 3d 61 f5 55 be c0 ca 22 be
       -0.23673806 0.038532827 -0.20894386 -0.15897655
000240 fb ac fb bd 5e e0 94 be 9d 9a 03 3f 6d 7c 73 be
       -0.12288853 -0.2907743 0.51407796 -0.23777933
000250 98 d4 bf bc e6 47 c0 be a5 87 4e bd ce 17 c0 3e
       -0.023416802 -0.37554854 -0.05042233 0.37518162
000260 28 ef 8a be f6 4d b0 bd c5 39 9b 3e 34 96 c1 3d
       -0.27135587 -0.0860862 0.30317512 0.09452477
000270 f6 0b e9 3e aa 52 af 3e 08 7d a8 bc fe fd 8d be
       0.45516938 0.34242755 -0.020567432 -0.27732843
000280 f2 1e ca bd d1 bd 8d be fd f6 18 3e de e1 13 3e
       -0.098691836 -0.2768388 0.14937969 0.1444163
000290 92 74 34 be 7d 81 b0 3e 69 b3 6b 3e 5d 2c 97 bd
       -0.17622593 0.34473792 0.23017658 -0.073815085
0002a0 9e 3e 0d 3e 8b dd 16 3c 3e 1c a9 bb 46 a7 aa 3d
       0.13793418 0.009208093 -0.0051608374 0.08332686
0002b0 79 62 b6 3e 68 5a 38 3d d6 e9 36 3e 65 eb 88 3e
       0.35622004 0.045008093 0.17862639 0.26742092
0002c0 a9 2e 03 bf 54 70 1e be c9 3b 96 3e bc 61 93 3d
       -0.5124307 -0.15472537 0.29342487 0.07196376
0002d0 c0 3a d8 3e 52 96 8f 3c 17 2a a8 bc 35 0c 2c 3d
       0.42232323 0.017527733 -0.020527883 0.04200383
0002e0 ca 74 5a be 74 22 db 3e db b6 3d 3e 5f 99 b3 3e
       -0.21333614 0.42799723 0.18526785 0.3507795
0002f0 6c b1 85 bd 1e 62 e6 bd b2 22 4c 3c 3c 1b 55 3d
       -0.06527981 -0.11249183 0.012459444 0.052027926
000300 71 83 81 be e9 7b f1 3e 15 66 57 3d 45 3c ec 3d
       -0.25295594 0.47164848 0.052587587 0.11534933
000310 5d a9 2d be 2d a9 6a bc 9e f9 0f be 39 67 d4 bd
       -0.16959138 -0.014322561 -0.14060065 -0.10371251
000320 a4 d2 50 bd 40 6c c8 3e 89 30 16 3e f5 ff f2 3e
       -0.050982133 0.39145088 0.14666952 0.47460905
000330 a7 1b 61 b9 79 bc 9b 3e 29 64 60 be 46 a6 69 3e
       -0.00021467973 0.3041723 -0.21913208 0.22817335
000340 71 9f 69 3e af 46 d6 3e cb 3d 24 bd c1 39 7d be
       0.22814728 0.41850802 -0.040097993 -0.24729063
000350 d4 18 7e 3e f3 42 7e be e1 87 99 be 86 f4 64 3c
       0.24814159 -0.24830227 -0.2998648 0.013974315
000360 1b f1 c8 be 5f 84 5c 3e bf 7e cb 3d af 2a 3e 3e
       -0.3924645 0.2153487 0.09936284 0.1857097
000370 93 cb 58 bd 2f a9 ab be ad 4f 5c be 01 e6 94 3e
       -0.05292852 -0.33527514 -0.21514769 0.2908173
000380 f0 75 90 3e b8 a5 ac be 79 2c 2a be 21 5b c6 be
       0.2821498 -0.33720183 -0.16618527 -0.387414
000390 6c b1 5a bd c8 d4 be be ff 70 e0 be 0e c7 27 be
       -0.05339186 -0.37271714 -0.4383621 -0.16384527
0003a0 4e f7 a9 3d 76 9f 02 be 9e 96 ab 3e 5d e3 33 3d
       0.08299123 -0.12756142 0.3351335 0.043918002
0003b0 e1 97 e2 3e 07 6b 7b 3d 3a 68 d4 3e d6 3e 21 3e
       0.442565 0.061381366 0.4148577 0.15746626
0003c0 36 da 25 bd 83 7b 56 be f1 33 c0 3e f6 f3 82 3e
       -0.040491305 -0.20945553 0.37539628 0.25576752
0003d0 48 c2 b8 3e d1 63 59 3d a6 06 a0 be db 79 38 be
       0.36085725 0.053073708 -0.31255072 -0.18015234
0003e0 9d f9 0f 3c 84 a5 4e be a1 da 47 be d9 6a 8a be
       0.00878754 -0.20180327 -0.19516994 -0.27034643
0003f0 88 a1 da bd 94 67 79 3e 72 de 66 3e dc af 97 be
       -0.10675341 0.24355918 0.22545794 -0.29626358

fc1.bias f4 [64]
000000 61 30 d2 3d 41 72 d9 be 58 77 89 3e 23 c9 e4 3e
       0.10263134 -0.4246998 0.26848865 0.44684705
000010 68 1b 71 be 0d ef dc be b7 70 63 be d7 eb e6 3c
       -0.23545611 -0.4315113 -0.22210966 0.02818863
000020 c4 82 ad be a6 a6 c1 3e 8c ed f3 bd 5b df f8 3e
       -0.3388883 0.37822455 -0.11910543 0.48607907
000030 77 64 08 3f a9 ff 9e 3d d5 c5 8d 3c db 96 65 be
       0.532783 0.07763607 0.017306248 -0.22420828
000040 6e 81 9e be 7d 36 b6 3e e8 a3 3a be 3f 99 0b be
       -0.30958122 0.35588446 -0.18226588 -0.13632677
000050 3c db d0 3b 1f 85 a9 3d ab 91 9b 3e ae 37 0b 3e
       0.006373791 0.08277344 0.30384573 0.13595459
000060 7e 82 12 3c 46 dd 07 3f 1c dd eb 3d 4b 00 7c be
       0.008942245 0.5307201 0.11516783 -0.24609487
000070 b5 c2 bd be 36 f9 5e 3e a4 b4 1b be 04 82 c4 be
       -0.37062612 0.21774754 -0.15205628 -0.38380444
000080 d1 e4 5f 3d 9e 83 37 be 02 98 08 3f 90 7c 03 3f
       0.054661576 -0.17921302 0.53356946 0.5136194
000090 58 fe 92 be 89 2a 16 3e 8e 4f b4 bb 53 f5 17 bd
       -0.28709674 0.14664663 -0.0055026477 -0.037099194
0000a0 0a 41 b8 be 40 55 4b be f8 dd 1d 3f b2 23 8b be
       -0.3598712 -0.19856739 0.6166682 -0.2717567
0000b0 1d b5 d4 3e d4 c0 cd 3b f5 4a 98 be 9f 22 1c 3e
       0.41544428 0.0062790904 -0.29744688 0.15247582
0000c0 da 0a b2 3e 1e 9f ea 3d f7 62 d8 3e d9 f7 4c 3e
       0.34773904 0.114561304 0.42263004 0.20016421
0000d0 1e e7 5c 3e 4c ab 80 be 30 50 b4 be e0 36 19 ba
       0.21572539 -0.2513069 -0.35217428 -0.0005844664
0000e0 56 19 f9 3e 81 ad 80 bd db 69 1c 3e 27 d4 85 be
       0.48652142 -0.06283093 0.15274756 -0.26138422
0000f0 48 f8 d6 3e 1c cb 93 3e 7d df af 3d 2f 85 29 3e
       0.419863 0.28865898 0.08587549 0.16554712

fc2.weight f4 [32, 64]
000000 8b 9d 18 3e 5e 0f 70 3d 52 be 20 bd 5a cc f1 3d
       0.14903848 0.058608405 -0.039244004 0.11806555
000010 b8 40 52 3e 2f 2e e7 3d c8 4f 27 bd 46 87 d7 3d
       0.205325 0.11288106 -0.04084757 0.10523848
000020 48 7a cd 3c 88 87 2e bc b3 49 a5 bc ed 41 4f 3d
       0.025082722 -0.01065243 -0.020176744 0.05059998
000030 94 24 07 3e aa 9c 02 3e 03 4d 27 3e a0 7d 1d be
       0.13197547 0.12755075 0.16337971 -0.15379953
000040 3f b4 9f 3d 8b 80 b5 3d df 98 7b bd 8a 0f 9e 3d
       0.07798051 0.08862408 -0.061425086 0.077178076
000050 2c 8d c9 bd 68 f7 aa 3d 79 17 d0 bd 37 bf ad bc
       -0.098413795 0.0834797 -0.10160727 -0.021209342
000060 c1 db 5b 3e 09 0d 70 3d fb 0f ea 3d ed 1f 2d 3e
       0.21470548 0.05860618 0.11428829 0.1690671
000070 c8 3f a8 3d bf 36 ce bd 1e 23 0a 3d 49 9d 84 bc
       0.0821529 -0.10069036 0.033724897 -0.01618828
000080 92 c1 76 3d cb e3 6e 3d d5 15 bd bd b7 d2 98 3d
       0.060243197 0.05832271 -0.0923268 0.07462066
000090 02 29 18 3d 95 be a2 bd 8a 40 35 bc db 39 06 3e
       0.037148483 -0.07946507 -0.011062751 0.13108008
0000a0 62 43 a3 3d 4a 59 9d 3c 44 79 30 3e 7e 94 fe bd
       0.079718366 0.019207615 0.17233759 -0.124306664
0000b0 5f 59 26 3e f4 6d b9 3d ea 85 af 3d bb 0a ea 3d
       0.1624503 0.09054175 0.08570464 0.11427828
0000c0 72 b6 af 3d a6 ba f3 3d 94 60 88 3d 6f 40 23 3c
       0.085797206 0.11900835 0.06659046 0.009964093
0000d0 0b 22 db 3d 66 59 56 3e 48 bf ab 3c 46 88 df 3d
       0.106998526 0.2093254 0.020965233 0.10914664
0000e0 97 b9 c2 bd a8 b5 d4 3d 9a 65 f9 bc 6c 55 86 3d
       -0.09508055 0.10386211 -0.030443955 0.06559262
0000f0 bd c8 cd 3c 08 f3 6e 3d d0 c3 ab 3d 1f dc 61 bd
       0.025120134 0.05833724 0.08386958 -0.055141564
000100 aa 06 5e 3d 8c f9 19 3d d7 63 ba 3d b8 7e 8d 3d
       0.054205574 0.037591502 0.09101074 0.06908935
000110 39 39 92 bd 21 91 1d bd 45 b2 6d bd db 54 a4 bc
       -0.071398206 -0.038468484 -0.05803134 -0.020059993
000120 6e e3 00 3e e8 7c 1e bd fd 1c c8 3d 53 21 be 3d
       0.12586758 -0.03869334 0.09771154 0.092837
000130 99 d2 ca 3d fa 1e 1a 3e 6f 03 95 bd 0e 02 f3 3d
       0.099034496 0.15050879 -0.072760455 0.11865626
000140 58 e5 da bd d2 44 3e 3e 4a f9 15 be ea fe 96 bc
       -0.10688275 0.1858094 -0.14645877 -0.0184321
000150 a4 7c c3 b9 ad 29 04 3e de 4e 8b bd fe 13 07 3e
       -0.00037286163 0.12906523 -0.06802152 0.1319122
000160 54 e9 a8 3c c8 cd 24 3d 8d 29 7d 3d c3 04 74 3d
       0.020619072 0.04023531 0.061807204 0.059574854
000170 d6 a8 04 be 56 db 9d 3d 40 e7 2d 3e 8d df c6 3d
       -0.12955031 0.07707851 0.16982746 0.09710608
000180 f3 5e d9 3d 16 30 23 3e 05 78 5a 3e c9 b7 ce 3d
       0.10613813 0.15936312 0.21334846 0.10093648
000190 73 cd 1e bb 75 3c 22 3d 7c 4e 7a 3c f4 6f e2 3d
       -0.0024231344 0.039608438 0.015277501 0.110565096
0001a0 66 b4 e8 bd e7 d3 a5 3d c0 ad 1c 3e c5 3b 5b bd
       -0.11362533 0.08097058 0.15300655 -0.053523798
0001b0 4c 4a 29 3e 8b 3b a0 3d 6d da aa 3d 07 48 82 bd
       0.16532248 0.07823857 0.08342443 -0.063613944
0001c0 33 d5 9f 3d 6c 19 e4 3d 42 6b e8 3d 88 77 12 3e
       0.078043364 0.11137661 0.11348583 0.1430341
0001d0 e4 c7 d8 3d 3a 1f 53 bb 0c da 98 3c ba 22 61 3d
       0.10585001 -0.0032214657 0.01865866 0.05496476
0001e0 69 3b 59 3e a2 00 c0 3d 69 42 40 bc 11 23 e6 3d
       0.2121407 0.09375121 -0.011734583 0.11237157
0001f0 be ab 39 3e e2 cf 2b bc 41 9a 40 bd 58 53 02 3e
       0.1813192 -0.010486575 -0.047022108 0.12727106
000200 24 c9 1f 3d 0e ca ca 3d 90 b0 ce bd dc 76 81 bd
       0.039010182 0.0990182 -0.100922704 -0.06321499
000210 32 c9 a8 bd c2 98 b6 3d e0 07 68 3c 08 a5 23 3d
       -0.082415 0.08915855 0.014162034 0.039952308
000220 b0 98 02 3c 48 8b da bd 16 3c e8 bd 50 12 b5 3c
       0.007970974 -0.10671097 -0.113395855 0.022103459
000230 20 ef 34 bd 90 c7 26 bc 74 33 d2 bd f0 2e 5d bd
       -0.04417336 -0.010179415 -0.1026372 -0.05399984
000240 a4 f4 d8 bd 06 66 96 3d aa e8 b6 bd 94 30 b3 3d
       -0.105935365 0.07343678 -0.08931096 0.087495
000250 20 79 a1 3b 38 4e ca 3c 80 6a 30 bc 90 62 1c bc
       0.0049277693 0.0246955 -0.010767579 -0.0095449835
000260 d6 64 9a bd 2a 99 ec bd b8 37 db bc 90 a2 f7 3c
       -0.07538764 -0.11552651 -0.026759967 0.030228883
000270 f0 86 0e bd 38 f0 b2 3c ac ca 1f bd 60 38 00 bc
       -0.034796655 0.02184306 -0.039011642 -0.007825941
000280 00 75 bb 3b 9a 50 d9 3d fa 97 eb bd c6 53 c4 bd
       0.0057207346 0.10611077 -0.115035966 -0.09586291
000290 74 bc 17 bd a0 2d d8 bb b4 a1 5d 3d b0 ea 37 3c
       -0.037044957 -0.006597236 0.05410929 0.011225387
0002a0 64 35 7a bd e6 b4 cc bd 92 96 e7 3d ba 9c 9b bd
       -0.061086074 -0.09995441 0.11308016 -0.075982526
0002b0 f2 61 eb 3d 3c 75 01 3d 60 1f 2b bc 48 70 6c bd
       0.11493291 0.031605944 -0.010444492 -0.057724267
0002c0 00 4c 6c bd fc 66 dd 3d f0 93 de 3c a0 91 aa bc
       -0.057689667 0.10810658 0.027170151 -0.020821393
0002d0 ea 91 99 bd ae ad cb bd 02 5a 8d bd fc 85 76 bd
       -0.07498534 -0.09945236 -0.06901933 -0.06018637
0002e0 78 db b2 bd 08 1e aa bd 88 ec 80 3c 68 7b ee 3d
       -0.087332666 -0.08306509 0.015737787 0.116446316
0002f0 6c 1f 5a 3d e4 bf e0 3d 82 76 db bd 70 bf f7 bc
       0.053252622 0.109741 -0.10715963 -0.030242652
000300 8d 5a 6e 3c c7 20 b9 bc 9c b5 0b 3e 2a b4 c5 3d
       0.014547956 -0.022598637 0.13643497 0.09653504
000310 e8 eb 74 bd 5e bc 00 3e df 35 8c bb 6c 16 9a 3d
       -0.05979529 0.12571856 -0.004278883 0.07523808
000320 5e 9c 1d bd 82 de 42 bc a7 e2 b8 bc 42 65 20 bd
       -0.0384792 -0.01189387 -0.022569014 -0.039159067
000330 0e f3 9a 3d 8d ac 61 3d d6 3b 8f 3d c9 64 93 3d
       0.0756589 0.055096198 0.06993835 0.071969576
000340 8e d3 28 3e 08 c2 8a 3d 65 3d ba bc 6f 57 9c bd
       0.16486952 0.0677529 -0.022734353 -0.07633864
000350 82 9d 01 3b 20 06 24 3e ba e2 af 3c a9 36 f1 bd
       0.001977772 0.16017962 0.021470416 -0.11778004
000360 c9 b2 6c bc e1 dc 8b 3e 9f 16 89 3e b5 05 04 3c
       -0.014446923 0.27316955 0.2677507 0.008058001
000370 8b 30 a8 bb cc 73 00 3e 2c d8 72 3e 72 6b 7b 3d
       -0.00513274 0.12544173 0.23715276 0.061381765
000380 73 0a ec 3d 7a 41 a0 3d 0a 97 1f 3e 6c 38 0e 3e
       0.115254305 0.07824989 0.1558496 0.1388871
000390 cb dc 1a bd d7 26 53 bd 5a 5d 97 bd a1 b3 d3 3c
       -0.03780822 -0.051550712 -0.07390852 0.02584249
0003a0 08 fc f3 3d 5c 80 48 be 15 aa 21 3e c1 45 4f 3d
       0.119133055 -0.19580215 0.15787537 0.050603632
0003b0 94 4d b5 3d f7 b0 1a 3d 0d 8c c2 3d 6a 08 44 3e
       0.088526875 0.037766423 0.09499369 0.19143835
0003c0 5c 2c 53 3d aa fd 57 bb 29 1e ef 3d dc 36 16 3d
       0.051555976 -0.0032957592 0.116756745 0.03667341
0003d0 6e 8c 03 3e 56 7f 46 3e 1a 64 47 be 19 5d 59 3e
       0.12846538 0.19384512 -0.1947178 0.2122692
0003e0 f5 59 31 3e 70 79 38 bd a1 42 03 bd 28 6d 2f 3c
       0.17319472 -0.045037687 -0.032045964 0.010707177
0003f0 48 d9 f3 bb f5 46 cb 3d 61 4d d7 bc 55 18 db 3d
       -0.0074416734 0.09925643 -0.026282014 0.10698

fc2.bias f4 [32]
000000 5d 60 ef 3d 9b 76 a4 bc 00 8c b2 39 c5 67 5b 3d
       0.11688302 -0.020076087 0.00034055114 0.05356576
000010 8a a4 5b 3e fc 13 97 bd 61 36 3d 3e 76 09 28 3d
       0.21449485 -0.073768586 0.18477775 0.041024648
000020 d4 e5 9d bd 80 2b b6 3d 9d 4d 56 bc 73 5f 6d 3b
       -0.07709852 0.08895016 -0.013080028 0.0036220222
000030 d5 8f bc 3d 72 08 91 3c c3 69 43 3e 95 74 0e 3c
       0.09207121 0.017704222 0.19083314 0.0086947875
000040 51 7e f4 3c b0 17 ee 3d 2f bb 7a 3b 25 4a e2 3d
       0.029845389 0.11625612 0.0038258543 0.11049298
000050 fb 2d 4b bd 08 91 f8 3d fc 6c fb bd 28 89 2a bc
       -0.049604397 0.121370375 -0.122766465 -0.010408677
000060 23 2b ce 3c f9 e6 12 bd 69 3f 61 3e dc 95 95 3d
       0.025167054 -0.035864804 0.21996845 0.07303974
000070 ca 9d a8 3d fa 17 9d 3c 8c 95 d9 bb 8a e9 df 3d
       0.08233221 0.019176472 -0.006640142 0.10933216

fc3.weight f4 [4, 32]
000000 b2 ef b1 bd cc 66 16 be 4b 45 4f b9 51 b7 3e be
       -0.086882964 -0.14687651 -0.00019766872 -0.18624617
000010 67 46 5b bd 5d b9 68 3c 9f 49 85 be 51 c7 5e bd
       -0.053533938 0.01420435 -0.2603273 -0.0543893
000020 01 11 1a 3e b2 fd c5 3d 7d 62 8c be 46 68 07 be
       0.15045549 0.09667529 -0.2741889 -0.13223371
000030 aa 33 01 3e 79 b8 90 be 0d 0e 6b be 59 bd 38 be
       0.12617365 -0.2826574 -0.22954579 -0.1804098
000040 8a 59 c5 bd 94 5a 09 be 05 49 19 be f7 16 02 be
       -0.09636219 -0.13413459 -0.14969261 -0.12704073
000050 cc 69 22 3e fe 32 e7 bc 82 3e f5 3d b7 2b 11 3d
       0.15860671 -0.028222557 0.11974813 0.03544208
000060 74 a2 57 3d dd 08 34 3e 5a 77 a1 3c d3 f3 30 be
       0.05264516 0.17581506 0.019710232 -0.17280512
000070 e6 ca ad 3d d6 f9 3d be 39 32 f6 bd 29 aa 22 bb
       0.084859654 -0.18552336 -0.12021298 -0.0024820662
000080 14 2e b1 bd da 9e a9 3d 49 e3 8a bd b4 48 03 3e
       -0.08651367 0.08282252 -0.067816325 0.12820703
000090 64 f5 b4 3d e0 f0 3d 3d 42 72 48 3e 5a 8c 2e bd
       0.08835867 0.046372294 0.19574836 -0.04261432
0000a0 9d f1 df 3c 35 4c 07 be ff 80 6a bc b5 3f a5 3d
       0.02733689 -0.13212664 -0.014312982 0.08068792
0000b0 95 98 13 be db ff ae 3d 48 0a 49 3e e9 00 56 3e
       -0.14413674 0.08544894 0.19632828 0.20898785
0000c0 ae 40 8c bd 73 3e 13 3e ea e9 95 3d 37 3c 24 3e
       -0.06848274 0.14379291 0.07320006 0.16038595
0000d0 de cd 46 bd e5 e4 0b 3e 3d 1d 0e bd e5 2b 5f 3e
       -0.048536174 0.13661535 -0.034695853 0.21794088
0000e0 fe 10 6e 3e 83 11 20 3d a9 da 70 3e 8b 4e e7 3c
       0.2324867 0.0390792 0.23520912 0.028235694
0000f0 fc 02 8b bc d9 1d 5a be 9b 07 5c be c5 3c de 3d
       -0.016969196 -0.21300448 -0.21487276 0.108514346
000100 43 a2 19 be 82 b9 86 be 6b 58 28 3e 57 a0 43 bd
       -0.15003304 -0.26313406 0.16439979 -0.047760334
000110 9f 61 00 be 69 cf a8 bd 36 66 2d be d8 fb 3d be
       -0.1253724 -0.08242685 -0.16933522 -0.18553102
000120 92 d1 3b bd 00 42 b4 bd be 2c 54 be 92 1f d4 bd
       -0.04585416 -0.08801651 -0.20720193 -0.10357584
000130 15 12 9d 3c 7e e7 14 bd 4f 56 2c 3d f0 53 80 3d
       0.019173661 -0.03635358 0.042074498 0.0626601
000140 27 0a d9 bc ed 4e a4 3d c8 af 66 bd 9c 60 05 3d
       -0.026494099 0.080228664 -0.05631998 0.032562837
000150 bd 40 e2 bd f1 4b 91 bd c3 ca 29 be 20 8f 26 be
       -0.11047504 -0.07094563 -0.16581254 -0.16265535
000160 04 b5 86 bd d8 fc 2f be 40 bd 85 be 47 bc 22 be
       -0.06577495 -0.17186296 -0.2612095 -0.15892135
000170 47 b2 2d bd d9 da 12 3e b8 af eb bd dd 1d 49 be
       -0.042406347 0.14341296 -0.11508125 -0.19640298
000180 c8 fb 53 3e 48 29 45 3c 95 07 c1 3d 55 7b 03 3e
       0.20701516 0.012033768 0.09425274 0.12840016
000190 c5 2b 23 3e 33 0c 30 be df 3e b5 bd fc f5 a2 3d
       0.15934666 -0.17192154 -0.08849882 0.07957074
0001a0 87 41 ba bd 58 f1 46 3e aa 25 f3 3d d2 30 aa bd
       -0.090945296 0.19428003 0.11872418 -0.08310093
0001b0 e2 f1 14 3e d1 6b d6 3d 1e d8 93 bd a2 f6 70 3e
       0.14545396 0.10469783 -0.072189555 0.23531583
0001c0 86 89 f2 bd be 94 bd 3c 26 8e 92 bd 52 42 52 3e
       -0.11842637 0.023142215 -0.07156019 0.20533112
0001d0 ea 73 16 be 3a ff 3f 3e bc 20 85 3d 04 4b 83 bd
       -0.14692655 0.18749705 0.06500384 -0.064107925
0001e0 58 68 02 be e0 63 b5 bc ee 8a 0d 3d a9 95 91 3d
       -0.12735116 -0.02214235 0.03455632 0.071086235
0001f0 5a 4a 0b 3d d6 ad a5 3d 57 b9 83 3e 83 9c 8f 3c
       0.034006454 0.08089797 0.2572734 0.017530685

fc3.bias f4 [4]
000000 10 0f e3 bd 81 2f 0f 3d 85 22 6e be 18 cd d1 3d
       -0.11086857 0.034957413 -0.23255356 0.10244197
